Trained models and wrapped datasets/trained_model.pth (torch, 4164 bytes, 6 tensors)

conv1.bias f4 [16]
00000000: 46ec 0cbd 03b5 983c e4ee e1bd 8a59 0bbd
00000010: be10 34bd 00ad 163c da13 803b 8b53 08be
00000020: 1a5f 2fba 2b89 b9bd 0e6e 04be 984f d0bd
00000030: efd8 6e3a 7036 59bd be98 65bc d6c7 b03c
-0.034405015 0.018641 -0.11031893 -0.034020938 -0.04396128 0.00919652 0.0039086165 -0.13313119
-0.00066898915 -0.09059366 -0.12932608 -0.10171431 0.0009111305 -0.05303043 -0.014013467 0.021579664

conv1.lin.weight f4 [16, 1]
00000000: 4901 023f c245 693e 1582 c6be 8397 b23e
00000010: bb05 f33e 74ed 0c3e 966f 553d f490 76be
00000020: c739 013d 0c27 143d 260e 16be 1cf1 15be
00000030: d622 6e3e f790 fa3c 9198 f23e 5ad7 8a3d
0.5078321 0.22780517 -0.3877112 0.3488122 0.4746531 0.13762456 0.05210837 -0.24078733
0.03154924 0.03617005 -0.14653835 -0.14642757 0.23255476 0.030586703 0.47382024 0.06779356

conv2.bias f4 [16]
00000000: 0c2a 2e3d 2806 c73b f540 01bd 238f 1ebd
00000010: 09e0 4ebd cb85 04bd 0848 bc3c a03e c9bc
00000020: 623a 3ebd 869a a63c af28 b7bd e6d6 b23c
00000030: 47fc 75bd 0bd2 723d 3624 bcbd 4ad7 3cbd
0.042520568 0.006073732 -0.03155609 -0.038710725 -0.050506625 -0.032354157 0.022983566 -0.024565995
-0.046442397 0.020337354 -0.08943307 0.021830987 -0.060055044 0.059282344 -0.09186594 -0.046103753

conv2.lin.weight f4 [16, 16]
00000000: 979d b2be 857c d13e 0fd7 c13d a1d2 9bbe
00000010: 2e1f b7be ba82 c83e 7c0b 3a3d f54e 85be
00000020: 8d5d d73e 1cb6 d43d 6b94 74bd 4a7b c1be
00000030: 336e fe3d ec64 093e b800 7a3e ad7f cdbe
00000040: 6d34 4e3d 95ab 6ebe c47a b0bd 1aa2 d8bd
00000050: dfa0 213e 41ae 603e 9ba2 19bd 63c4 1a3e
00000060: f3ed e3bd 97ed cfbe b5e1 03bb 0ae7 f2be
00000070: 5313 0a3e 7132 20be 54ae d2bc bff1 d9be
00000080: 59e3 933e 3d48 57be f45a a1be 5a3c 69be
00000090: 46ac 873e e42b 0e3c 8be2 b1bd af2d 5a3e
000000a0: 4071 afbe b79d 52be 0333 3a3d 5dca 013d
000000b0: b30d c53d 40ab 1a3e 1daa 883e fb84 abbe
000000c0: cedb c4bd cf8f 663e a93e fdbd 2b28 563e
000000d0: d335 383e 5043 073e 888c aebe 9c7e b93d
000000e0: 9682 c13e 04a2 ca3d f226 07be c96f abbc
000000f0: 9cf4 823e 22eb c0be 8ea7 38be be61 94be
00000100: 8bef 8d3e b9c8 d9be 68e2 b9be 1821 203d
00000110: c95d bfbd 7dea c2be 4f71 59be 4658 c63e
00000120: 5153 6a3e ba1c 01bc 8413 d1be 71e5 85be
00000130: 7d60 c1be 8267 1cbe 5a62 62be 5904 c53e
00000140: 2736 923e b9a0 7abe 9e73 b6be 31bb 903e
00000150: f8ca 253e 8947 cbbe ed37 7d3b becd a7be
00000160: e92c 483d fba3 debe 09b0 7c3e bde1 8f3e
00000170: 3cb1 babe 85c9 8c3e 9c48 853e e659 7abe
00000180: 3d1b 8bbe 555b a73e bb97 1cbf 2238 b5be
00000190: c644 833e a89a be3e 5855 ddbd 2610 2bbe
000001a0: 6fec 823e 4bd9 b5be bc97 383c 9ad2 a2be
000001b0: c3e0 af3e a3a4 853e bd30 dc3e 0ae3 073e
000001c0: c11a d6be 1eef 35be 1802 abbe 3e94 8fbe
000001d0: 088d 5dbe a9e6 2b3e 8025 a0bd f52d 403e
000001e0: c93c 54be 9b2c 1fbd 0934 03be e907 d33e
000001f0: 3f5d b3bd de74 fd3d de62 8d3e e7c4 383e
00000200: 3825 ed3d c89e 91be d648 24be 7242 4bbe
00000210: a8ec 943e 5b38 a33e 530b 9f3d e170 3cbe
00000220: 4e4f 863e 83ab 66be 7d90 2dbe 709f 2fbd
00000230: 9f39 823d bc7a d5be 101c bebe 7e65 003e
00000240: a8cb f8bc 7c52 25bd dd74 783e 493a cdbe
00000250: f382 68bd 5256 4e3e f64a 56be 7067 95be
00000260: ab56 29be 7603 893c 2a7b bf3e 78e3 c63e
00000270: 4afd e43e 46ca a3bd e4f8 da3e 5cce 183e
00000280: c70b 7fbe 0971 2bbe a711 dcbe 1fe5 8f3d
00000290: 10c8 423e 1b5c 7cbe 2534 2ebe da17 cc3d
000002a0: 00f3 b0be 5d6d 19be 4557 2c3e a270 033e
000002b0: cdb6 ccbc e2ae 7e3d a9fa 96be 4ab6 a83e
000002c0: 6eec cebe 28ff 9c3e 6616 733d f767 26be
000002d0: 12de b23e 9dc3 6d3e cc66 d23e adfc f3be
000002e0: 5d53 993e b86d 3f3e 009d c4be 4a95 683e
000002f0: 8a31 75be 9dcd a63b 997d 953e 3bae 92bd
00000300: 83eb 393d 18c2 103d 3c89 aebc 6208 a7bd
00000310: 2cdb cfbe 9e52 3e3e aacd c43e b4a9 13bc
00000320: 6296 fc3d ebae 873e 3a39 66be febd 50bd
00000330: c6a1 24bc 12df dfbc 472d dcbe f42c 2b3e
00000340: f2b3 89be 7bc0 973e be13 53bc 1c47 46be
00000350: 058b 273e 252e d93e 3cc3 793e d91a af3e
00000360: e58d a53e 25c7 0cbe 25ea 8cbb 3aa7 96bd
00000370: c18d dd3e dc2f ddbc 6bf3 3abe ca93 4abe
00000380: 7af8 433e bff9 093d 33ce 5a3c 3dac 08bf
00000390: 75dd acbe b17a 60be f0cc cdbe 84ed 6c3e
000003a0: 4933 0fbd 7781 2fbe 5979 863e dbce 45be
000003b0: ad0b 0bbf 2b7c bbbe b548 0ebf 95f2 68be
000003c0: 055e 1e3e 309f e7be 2096 16be 209e 903d
000003d0: 32f4 babd 7e17 643e 2e19 afbd 060b 5c3e
000003e0: 0175 f23d 5855 553e 81da 193d fdc5 933e
000003f0: f9f4 833d d21a 42bb 6d06 733e 013f cfbe
-0.34885857 0.40915313 0.09464847 -0.30434135 -0.35765976 0.39162236 0.04542111 -0.26036802
0.4206356 0.10386297 -0.059711855 -0.37789375 0.124233626 0.13417405 0.24414337 -0.4013647
0.050342966 -0.23307641 -0.08617166 -0.105777934 0.15784024 0.21941473 -0.03750859 0.15113978
-0.111293696 -0.40610954 -0.0020123546 -0.47441894 0.13483934 -0.15644242 -0.025717892 -0.4256725
0.2888439 -0.2102365 -0.31514704 -0.22776929 0.26498622 0.0086774565 -0.08685788 0.2130649
-0.3426609 -0.20567976 0.045458805 0.03168713 0.096217535 0.15104389 0.26692286 -0.33499894
-0.09612237 0.22515796 -0.12365467 0.2091376 0.17989282 0.13209271 -0.34091592 0.09057352
0.37794942 0.09894183 -0.1319845 -0.020927327 0.25577247 -0.37679392 -0.18032667 -0.2898082
0.2772182 -0.42535952 -0.36305547 0.03909406 -0.0934406 -0.38069525 -0.2123463 0.38739222
0.22883345 -0.007880384 -0.40835202 -0.26151612 -0.37768927 -0.1527386 -0.2210783 0.3847988
0.2855694 -0.24475373 -0.35635084 0.28267816 0.16190708 -0.39703014 0.003863807 -0.32774156
0.048870955 -0.43484482 0.24676527 0.28101912 -0.36463344 0.27497497 0.2603196 -0.24448356
-0.2716922 0.32686868 -0.6116902 -0.35394388 0.25638407 0.37227368 -0.10807294 -0.16705379
0.2557101 -0.35517344 0.011266645 -0.318013 0.34351167 0.2610217 0.43005934 0.13270202
-0.41817287 -0.17766997 -0.33400035 -0.28042787 -0.2163583 0.16787209 -0.078196526 0.18767531
-0.20726313 -0.0388609 -0.12812819 0.41216972 -0.0875802 0.12375806 0.27614492 0.18043862
0.115793645 -0.28441453 -0.1604341 -0.19849566 0.29086804 0.31878933 0.07765832 -0.18402435
0.2623238 -0.22526364 -0.16949649 -0.04287666 0.063586466 -0.416952 -0.37130785 0.12538716
-0.030370548 -0.040361866 0.2426333 -0.4008353 -0.056765508 0.20150116 -0.20927033 -0.2918048
-0.16536967 0.016725283 0.37398654 0.3884542 0.44724494 -0.07997565 0.42768013 0.1492247
-0.24906836 -0.16742338 -0.42982218 0.07026123 0.1902163 -0.2464451 -0.17012079 0.09965487
-0.34560394 -0.14983125 0.16830166 0.12835935 -0.02498951 0.0621785 -0.29488114 0.32951576
-0.40414757 0.3066342 0.059347533 -0.16250597 0.3493505 0.23219152 0.41094053 -0.47653714
0.29946414 0.18694198 -0.38401031 0.227132 -0.23944679 0.005090429 0.29197386 -0.07162138
0.045390617 0.035341352 -0.021305673 -0.08155896 -0.40596902 0.18586203 0.3843816 -0.009012628
0.12333371 0.2650064 -0.22482768 -0.05096244 -0.010048335 -0.027328048 -0.43003294 0.16716367
-0.268951 0.29639038 -0.012883125 -0.19363064 0.16361625 0.42418018 0.24390882 0.3420017
0.3233482 -0.13747843 -0.004300373 -0.07356115 0.43272212 -0.02700036 -0.18256919 -0.1978294
0.19137755 0.033685442 0.013354826 -0.53387815 -0.33762708 -0.21921803 -0.40195417 0.2313748
-0.03496102 -0.1713923 0.26264456 -0.1931719 -0.5431469 -0.3661817 -0.5557969 -0.22748788
0.15465553 -0.45238638 -0.14705706 0.0706141 -0.09128608 0.22274587 -0.085497245 0.2148858
0.11838723 0.20833337 0.037561897 0.2886199 0.06443209 -0.0029618037 0.2373292 -0.40477756

conv3.bias f4 [2]
00000000: 1949 92bd 396b 123d
-0.071428485 0.035746787

conv3.lin.weight f4 [2, 16]
00000000: 652f c43e ac19 d23e c9a1 6f3e c27b 92be
00000010: 28d4 2abe ab7f bcbd 3c43 3ebe ac1a 08be
00000020: ee3f 1cbd 5325 bd3d ac2f 0b3f 021f 2c3e
00000030: ae92 183e 2ea0 08bf f009 403e e05f 613e
00000040: c7b8 6cbe 5cb3 833d 8f06 a7be 8ae6 2bbe
00000050: aefd e93e 484f bebe 3325 0f3f 38b0 3fbe
00000060: f6a9 a63e 0655 853e c382 d73e 46f3 b63e
00000070: fc03 f8be b929 98be b58f 223d dd02 dfbe
0.3831741 0.4103521 0.2340156 -0.28610045 -0.16682494 -0.09204038 -0.18580335 -0.13291425
-0.038146906 0.09235635 0.54369617 0.16808704 0.14899704 -0.53369415 0.18753791 0.2200923
-0.23117362 0.064306945 -0.3262219 -0.16787162 0.45701355 -0.37169862 0.55916137 -0.18719566
0.32551545 0.2604143 0.4209195 0.35732478 -0.4844054 -0.29719332 0.03968783 -0.43556872
