Trained models and wrapped datasets/train_model_with_validation.pth (torch, 4432 bytes, 6 tensors)

conv1.bias f4 [16]
0	0xbb7f1452	-0.0038922024
1	0xbd1b7aea	-0.037959017
2	0xbdee09ce	-0.11622964
3	0xbca6f259	-0.020379232
4	0xbc97aa80	-0.018513918
5	0xbc8cdc8f	-0.017195014
6	0xbdfd3e8c	-0.123654455
7	0x3d73daa2	0.059534676
8	0xbaa6b764	-0.001271945
9	0xbca7d9b4	-0.020489551
10	0x3b998723	0.004685299
11	0x3d2c245b	0.04202686
12	0x3d32897a	0.04358814
13	0xbd6c94b7	-0.057759013
14	0xbdc7a3c7	-0.09748035
15	0xbc8f56b7	-0.017497404

conv1.lin.weight f4 [16, 1]
0	0x3e9f84f1	0.31156114
1	0x3ef2dff0	0.47436476
2	0xbe52d428	-0.20588744
3	0x3d9f653d	0.077829815
4	0x3e350432	0.17677382
5	0xbd6fce62	-0.05854643
6	0xbd187163	-0.03721751
7	0xbe9fc115	-0.31201997
8	0x3eb3607e	0.35034555
9	0x3eeb2173	0.45923957
10	0x3be4f5d0	0.006987311
11	0xbd50e3eb	-0.05099861
12	0xbe4ed209	-0.2019731
13	0x3ebbd64a	0.36686927
14	0xbe2da661	-0.16958
15	0x3db32de3	0.087489866

conv2.bias f4 [16]
0	0x3cedefe0	0.029045045
1	0xbd517388	-0.05113557
2	0x3b5a5dda	0.00333201
3	0xbd60e172	-0.0549025
4	0xbd531d4b	-0.051541608
5	0x3b842a0a	0.0040333318
6	0x3bebfe8a	0.0072019743
7	0x3c1be120	0.009514123
8	0xbddda141	-0.10821772
9	0xbde991ed	-0.11404786
10	0xbd51ebe0	-0.05125034
11	0xbcb85c6b	-0.022505006
12	0x3d285310	0.04109484
13	0xbd4b6ea5	-0.049666066
14	0x3e4cb8b8	0.1999234
15	0xbc8e89ef	-0.017399756

conv2.lin.weight f4 [16, 16]
0	0xbd270c08	-0.04078296
1	0x3eb11b0d	0.3459095
2	0xbe971c59	-0.29513815
3	0xbe472b25	-0.19450052
4	0xbeabc8c1	-0.335516
5	0x3e1b0e8f	0.15142272
6	0x3dfa07fd	0.12208555
7	0x3eab9814	0.33514464
8	0xbec462f0	-0.38356733
9	0x3e15c55b	0.14626066
10	0xbe2f07a0	-0.17092752
11	0x3eb395ec	0.3507532
12	0x3ea5285f	0.32257363
13	0x3ec1118c	0.377087
14	0x3e28f1f1	0.16498543
15	0xbed869b9	-0.4226816
16	0xbed370c4	-0.4129697
17	0xbe0387f2	-0.12844828
18	0xbed56398	-0.41677547
19	0x3eb8ac63	0.3606902
20	0xbdc0aba3	-0.09407737
21	0xbebecc6e	-0.37265342
22	0xbed33e42	-0.41258436
23	0xbec5a843	-0.38604936
24	0xbea6b8c0	-0.32562828
25	0x3dadee9d	0.084927775
26	0x3cc6f192	0.024285112
27	0x3ea8441c	0.32864463
28	0x3ecdf909	0.4022906
29	0xbe9dc7a9	-0.3081639
30	0x3eabdb65	0.33565822
31	0xbed6a893	-0.41925487
32	0x3e9ec6b5	0.31010976
33	0xbd8664a1	-0.06562162
34	0x3e26cb81	0.16288568
35	0xbeb26d1a	-0.34848863
36	0xbeb13a07	-0.34614584
37	0xbea7a8a3	-0.32745847
38	0xbe2756ed	-0.16341753
39	0xbe62fc5b	-0.22166578
40	0x3ea56568	0.3230393
41	0x3d828071	0.063721545
42	0xbda6840a	-0.08130653
43	0xbfae77c8	-1.3630304
44	0xbe7a2223	-0.24427085
45	0x3de661f0	0.11249149
46	0xbea6a678	-0.3254888
47	0xbe001976	-0.12509713
48	0xbd2d3d1b	-0.042294603
49	0x3dd73063	0.10507276
50	0x3d30deff	0.043181416
51	0xbdfff928	-0.12498695
52	0x3ea5b37a	0.32363492
53	0xbe273da8	-0.16332114
54	0x3eb12129	0.34595612
55	0xbe86659c	-0.26249397
56	0x3dc3825d	0.09546349
57	0xbe4a992b	-0.19784991
58	0xbeb478ad	-0.35248318
59	0xbed3e1ef	-0.4138331
60	0xbdc4ec63	-0.096154
61	0x3ec8e65f	0.3923826
62	0x3de7a21e	0.11310218
63	0xbe408224	-0.18799645
64	0xbe2fcf09	-0.17168821
65	0x3e3f61e2	0.18689683
66	0x3d5ef76c	0.05443518
67	0xbd652df9	-0.055952046
68	0xbdbca5b7	-0.09211295
69	0x3ebdb8b3	0.37054977
70	0xbdbb0c40	-0.09133196
71	0xbe65fecc	-0.22460479
72	0x3cf2d8e1	0.029644432
73	0xbd391f58	-0.045195907
74	0x3e966e09	0.29380825
75	0xbde86453	-0.1134726
76	0xbdacdcde	-0.084405646
77	0xbda95162	-0.08267476
78	0xbe37e3f9	-0.17958058
79	0xbe8e3ebd	-0.2778224
80	0x3edd0c96	0.43173665
81	0xbecd1e0e	-0.40061992
82	0xbeac1129	-0.33606842
83	0x3eab4a3f	0.33455083
84	0xbea91629	-0.3302472
85	0x3e81e53a	0.25370198
86	0xbe96f27d	-0.2948188
87	0xbe78d520	-0.2430005
88	0x3e32f994	0.17478019
89	0xbe4654e2	-0.19368318
90	0xbeb1328d	-0.3460888
91	0x3e4b5226	0.19855556
92	0x3e4869f4	0.19571668
93	0xbd820e9d	-0.063504435
94	0x3e51dd81	0.20494653
95	0xbe283b65	-0.16428907
96	0xbdc60d7b	-0.0967054
97	0x3ec9c9fa	0.39411908
98	0x3e984400	0.2973938
99	0xbe22e14e	-0.1590626
100	0xbdb52c0b	-0.08846291
101	0xbe81820e	-0.25294536
102	0xbe999886	-0.2999918
103	0xbd87c817	-0.06629961
104	0x3e86e3d5	0.26345697
105	0x3d9aef23	0.07565143
106	0x3e1a4378	0.150648
107	0x3dc7ad09	0.09749801
108	0x3e5d6fed	0.21624728
109	0xbebac715	-0.36480013
110	0x3e95c032	0.29248196
111	0xbe208db8	-0.15679061
112	0xbc8e1232	-0.01734266
113	0xbe90c499	-0.28274992
114	0x3d9ffbc6	0.07811694
115	0x3e5ea04d	0.21740837
116	0x3e8c5249	0.2740653
117	0x3cf1bd3b	0.029509177
118	0x3e2dbda6	0.16966876
119	0x3d779a5c	0.060449943
120	0x3ede69c7	0.43440077
121	0xbe2a70c1	-0.16644575
122	0x3e0f689e	0.14004752
123	0xbe7ee327	-0.24891339
124	0x3e39376b	0.18087547
125	0x3d80b7b8	0.062850416
126	0xbe03ed1c	-0.12883419
127	0x3ea3ec59	0.32016256
128	0xbe0d9448	-0.13826096
129	0xbed3a69f	-0.4133806
130	0xbf03b434	-0.51446843
131	0xbdb21c4a	-0.08696802
132	0x3e870dc2	0.26377684
133	0x3d76c65f	0.060247775
134	0xbe13e7db	-0.14443915
135	0xbe43e037	-0.191285
136	0x3e6d4007	0.23168956
137	0xbe898004	-0.2685548
138	0x3cf548d7	0.02994196
139	0x3defb44a	0.11704309
140	0x3ea83869	0.32855538
141	0xbec35ed7	-0.38158295
142	0xbdc6b635	-0.09702722
143	0xbe1de9e3	-0.15421252
144	0xbed37e20	-0.41307163
145	0x3e01bc80	0.12669563
146	0x3e28ad03	0.16472249
147	0x3da4adf0	0.080409884
148	0x3e4ff580	0.20308495
149	0x3e3d9948	0.18515503
150	0x3dcbabc5	0.09944872
151	0xbee8bdda	-0.45457345
152	0xbe7edb1e	-0.24888274
153	0x3ea88345	0.3291265
154	0xbec641ba	-0.3872202
155	0x3e0a8be6	0.1352993
156	0xbec6d16c	-0.3883165
157	0xbee57fc5	-0.44824043
158	0x3e942446	0.28933924
159	0x3e167754	0.14693958
160	0xbdfc5e10	-0.123226285
161	0x3e9614e8	0.29312825
162	0xbe93d0c3	-0.2887021
163	0x3ec8d079	0.39221552
164	0xbda2d552	-0.07950844
165	0xbdabadb2	-0.08382739
166	0x3e912855	0.28351083
167	0x3d4b9fee	0.049713068
168	0xbe0b9d2a	-0.13634172
169	0xbcf6b8a4	-0.03011734
170	0xbe2f8fae	-0.17144653
171	0xbeb45fc9	-0.35229328
172	0x3d636b4d	0.055522252
173	0xbed6ff13	-0.4199148
174	0xbde99fc4	-0.11407426
175	0xbe166896	-0.14688334
176	0xbdfc0c98	-0.123070896
177	0x3e449b9d	0.19199987
178	0xbcf1a31d	-0.029496724
179	0x3d0b9c67	0.034084704
180	0x3d2c987d	0.04213761
181	0xbea8ba8c	-0.32954824
182	0x3e9b7f21	0.3037043
183	0x3ebcd15c	0.3687848
184	0x3e6a7809	0.22897352
185	0x3ec53dcd	0.38523713
186	0xbdd882c7	-0.10571819
187	0xbec7268c	-0.38896596
188	0x3ea77643	0.32707414
189	0xbec216e1	-0.3790808
190	0x3e3f769a	0.18697587
191	0x3e33b263	0.17548518
192	0x3e2e0576	0.1699427
193	0xbeda90cf	-0.42688605
194	0x3ecc4df1	0.39903215
195	0xbf004040	-0.5009804
196	0xbf0852d0	-0.5325136
197	0xbda13963	-0.07872274
198	0x3e927def	0.28611705
199	0xbeb64c7b	-0.35605225
200	0xbdcc45f0	-0.09974277
201	0xbe862d99	-0.26206663
202	0xbef966d4	-0.48711264
203	0xbd38f243	-0.045152914
204	0x3c768fec	0.015048962
205	0xbeb646b9	-0.35600832
206	0x3eb0a9d1	0.3450456
207	0xbd3c21f1	-0.045930807
208	0x3e29b971	0.16574647
209	0xbe882515	-0.2659079
210	0x3d905ce8	0.070489705
211	0x3e1a15d2	0.15047386
212	0xbed54862	-0.41656786
213	0x3d1afd65	0.037839312
214	0xbefbdd31	-0.49192193
215	0xbe2517ce	-0.16122362
216	0xbed81a1a	-0.42207414
217	0x3dcf9830	0.10136449
218	0xbef9a92f	-0.4876189
219	0xbe8dc4e9	-0.27689293
220	0xbc1d2c7d	-0.009593126
221	0xbef5a7a5	-0.47979465
222	0x3e0babe9	0.13639797
223	0xbe820ae3	-0.2539893
224	0x3ab1720a	0.0013538015
225	0xbdc01526	-0.09379034
226	0xbc242fd0	-0.010021165
227	0x3dbba04a	0.09161432
228	0xbeab09a5	-0.33405796
229	0x3eb7595a	0.35810357
230	0x3e4c4fe5	0.19952352
231	0xbe173f6a	-0.14770284
232	0x3c58f161	0.013241143
233	0xbd3050f9	-0.04304597
234	0x3e6611ed	0.22467776
235	0x3e62e826	0.2215887
236	0x3efe153b	0.49625573
237	0xbd87d960	-0.06633258
238	0xbe831648	-0.25602937
239	0xbe89d27b	-0.26918396
240	0xbe8b86dd	-0.2725133
241	0x3e11550a	0.14192596
242	0xbdafb29d	-0.0857899
243	0x3e83159b	0.2560242
244	0x3e445fa5	0.1917711
245	0xbdec47d4	-0.11537138
246	0x3d91cc9c	0.07119104
247	0x3eb837a9	0.35979965
248	0xbe9db626	-0.3080303
249	0x3e8d4780	0.27593613
250	0xbe98b115	-0.29822603
251	0xbe4aae16	-0.19792971
252	0xbea39bb9	-0.31954744
253	0x3d84fd91	0.064936765
254	0xbe8b8aff	-0.27254483
255	0xbe57e8e8	-0.2108494

conv3.bias f4 [2]
0	0xbd33992b	-0.043847244
1	0xbcaca038	-0.021072492

conv3.lin.weight f4 [2, 16]
0	0xbe8392b9	-0.25697878
1	0xbe5b3301	-0.21406175
2	0xbe3e80f9	-0.18603887
3	0x3e4a6737	0.19765936
4	0x3e015706	0.12630853
5	0xbcf5c763	-0.030002302
6	0x3ecad9d6	0.3961932
7	0x3eaa905d	0.33313265
8	0xbed77a71	-0.42085603
9	0x3ebcacdf	0.3685064
10	0xbeec4786	-0.46148318
11	0xbdc2cd71	-0.09511841
12	0xbeb13340	-0.34609413
13	0xbe1e0d2b	-0.1543471
14	0x3e8b44fb	0.27201065
15	0xbe91649e	-0.28397077
16	0xbdcf1c21	-0.10112787
17	0xbf069053	-0.5256397
18	0xbed059c5	-0.4069349
19	0x3e71b7fd	0.23605342
20	0x3f0e1da0	0.55513954
21	0x3ebb2096	0.365483
22	0xbf03ce8c	-0.5148704
23	0xbeff9c8f	-0.49924132
24	0x3e3b49c1	0.18289854
25	0xbda013c3	-0.07816269
26	0xbec92186	-0.3928339
27	0x3f0649fe	0.52456653
28	0x3df43afd	0.119253136
29	0x3ef13fa6	0.47118872
30	0xbc58fc80	-0.013243794
31	0x3e91a5a2	0.2844668
