Trained models and wrapped datasets/train_model_with_validation.pth (torch, 4432 bytes, 6 tensors)

conv1.bias f4 [16]
0	0xbd524ef4	-0.051344827
1	0xbdb45b53	-0.08806481
2	0x3d452568	0.048131377
3	0xbd339dd8	-0.043851703
4	0xbd825580	-0.06363964
5	0xbe1dec0b	-0.15422074
6	0xbd32da6c	-0.043665335
7	0xbdbff4ca	-0.09372862
8	0xbcecc08a	-0.028900404
9	0xbd0f9b36	-0.03506013
10	0xbd3e6945	-0.04648711
11	0xbdd4f0d2	-0.10397495
12	0xbda3b185	-0.079928435
13	0xbd380731	-0.044928733
14	0xbd01be8f	-0.03167587
15	0x3c16f393	0.009213346

conv1.lin.weight f4 [16, 1]
0	0x3e2b28b1	0.16714741
1	0x3e837f50	0.2568307
2	0xbdfddb21	-0.12395311
3	0x3e67a58d	0.22621746
4	0x3eee7478	0.46573234
5	0xbdfa30c2	-0.12216331
6	0x3ec136b1	0.3773704
7	0xbd480c38	-0.048839778
8	0xbe9cab2d	-0.30599347
9	0xbde6d84e	-0.112717256
10	0x3e11ab25	0.14225443
11	0xbe311bf1	-0.17295815
12	0xbf00aef5	-0.50266963
13	0x3e4be469	0.1991135
14	0xbdddeb9d	-0.10835955
15	0xbdddaa11	-0.10823453

conv2.bias f4 [16]
0	0x00000000	0.0
1	0xbd3ed7f5	-0.04659267
2	0xbd665d6e	-0.056241445
3	0xbdb7fa5e	-0.089833006
4	0xbbc89df7	-0.0061223465
5	0xbcceccf3	-0.025244212
6	0x3c26b93e	0.010176001
7	0xbd91697d	-0.071001984
8	0x3c2505da	0.010072196
9	0xbd3a4299	-0.04547367
10	0xbb507258	-0.0031806435
11	0x00000000	0.0
12	0x3cc5fc8c	0.024168275
13	0xbd103ffb	-0.035217267
14	0x00000000	0.0
15	0x3d2f0e71	0.04273838

conv2.lin.weight f4 [16, 16]
0	0xbdef0eee	-0.116727695
1	0xbed2d3d7	-0.41177246
2	0xbed43bf5	-0.41451994
3	0x3ce70533	0.028200721
4	0xbec0102c	-0.37512338
5	0xbebb0a59	-0.36531332
6	0x3de6a534	0.11261979
7	0xbeda85f0	-0.4268031
8	0xbe22b7c4	-0.15890414
9	0xbe834883	-0.2564126
10	0xbea3a14e	-0.31959003
11	0xbd5c2c58	-0.053753227
12	0x3eb774f8	0.35831428
13	0x3e8c050c	0.273476
14	0xbd085ba5	-0.033290524
15	0xbea81412	-0.32827812
16	0x3a6910af	0.00088907307
17	0xbe8d5f81	-0.27611926
18	0x3e197f9e	0.14990088
19	0x3e811a42	0.25215346
20	0x3ebdb2da	0.37050515
21	0x3d4bb868	0.04973641
22	0xbebacb7a	-0.36483365
23	0x3de9f225	0.114231385
24	0xbd99e63a	-0.07514615
25	0x3e8e5928	0.27802396
26	0xbc551b7a	-0.013007039
27	0xbeb2bc63	-0.34909353
28	0x3e2f1c2c	0.1710059
29	0x3d91c430	0.07117498
30	0x3e7c2405	0.24623115
31	0x3d80c72a	0.062879875
32	0xbdcbcae4	-0.09950808
33	0xbdea2ebe	-0.114346966
34	0xbe526b0d	-0.20548649
35	0x3e1b70fc	0.15179819
36	0x3eb7d3a0	0.35903645
37	0xbec37e5d	-0.38182345
38	0x3e51b9d9	0.20481052
39	0x3e70af0f	0.2350428
40	0xbd7c21c9	-0.061555658
41	0xbe541692	-0.20711735
42	0xbd9d8240	-0.07690859
43	0x3ebc69f1	0.36799577
44	0x3dd589a7	0.10426646
45	0xbdc03759	-0.09385557
46	0x3cff5ed5	0.03117315
47	0x3dacb16f	0.0843228
48	0xbe3d7913	-0.18503217
49	0x3be06278	0.006847676
50	0xbf005a95	-0.5013822
51	0x3e868b70	0.26278257
52	0x3e8a7873	0.2704502
53	0x3e860cc9	0.2618163
54	0xbd2f5b53	-0.042811703
55	0x3ded2187	0.115786605
56	0xbe5a67e4	-0.21328694
57	0xbe383b3f	-0.1799135
58	0xbd630d3b	-0.05543254
59	0x3e08688d	0.13321133
60	0xbcd7f11a	-0.026360083
61	0xbe96d07c	-0.29455936
62	0xbe490153	-0.19629411
63	0xbe8605d8	-0.26176333
64	0x3eebb6b4	0.4603783
65	0xbe49e355	-0.19715627
66	0xbef18518	-0.47171855
67	0xbe961f71	-0.29320863
68	0xbe937902	-0.2880326
69	0xbe0301aa	-0.12793604
70	0x3eddea6b	0.4334291
71	0x3ea2e0c8	0.3181212
72	0x3d7f1468	0.06227532
73	0xbe4fce48	-0.20293534
74	0x3e1cd2c3	0.15314774
75	0xbebd5d49	-0.36985233
76	0x3eab49e0	0.334548
77	0x3e9a316c	0.3011583
78	0x3cde5fff	0.027145384
79	0x3e299400	0.16560364
80	0xbf100951	-0.56264216
81	0xbed07710	-0.40715837
82	0xbe941af9	-0.28926829
83	0xbe8738e2	-0.26410586
84	0x3df74926	0.12074499
85	0x3e6e8a16	0.23294863
86	0xbe93b2b4	-0.28847277
87	0xbe1fb3ab	-0.15595882
88	0x3e8d9c75	0.2765843
89	0xbe91dd9f	-0.28489396
90	0xbea29336	-0.31752938
91	0x3e9d8fe2	0.30773836
92	0x3e00317a	0.12518874
93	0x3d04417f	0.032289024
94	0xbe077842	-0.13229468
95	0x3e86b259	0.26307943
96	0x3e7ee4ec	0.24892014
97	0xbe32089f	-0.17386101
98	0x3e941d09	0.28928402
99	0x3e543e98	0.20727003
100	0xbccb7b0b	-0.024838945
101	0x3d82335f	0.063574545
102	0xbec82ef2	-0.39098316
103	0xbe91e48b	-0.28494677
104	0xbe0b7f75	-0.1362284
105	0x3e8a0788	0.2695887
106	0xbe755371	-0.23957612
107	0xbdd29848	-0.102829516
108	0x3ec3c8a8	0.38239026
109	0xbebed5e8	-0.37272573
110	0xbe41ecc5	-0.18937977
111	0x3e5612a1	0.20905544
112	0xbc5cff0f	-0.013488545
113	0x3e41c568	0.18922961
114	0xbe64c07a	-0.22339049
115	0x3e601647	0.21883498
116	0x3da2030a	0.07910736
117	0x3d6c2be0	0.05765903
118	0xbedbf263	-0.42958364
119	0x3e64b28d	0.22333737
120	0xbd90aab4	-0.07063809
121	0x3e0d7f9b	0.13818209
122	0xbe909062	-0.28235155
123	0xbebb90bc	-0.3663386
124	0xbd00ca57	-0.031442966
125	0xbdb526d2	-0.08845295
126	0x3de5ec15	0.1122667
127	0x3eb9e059	0.36303976
128	0x3e96d80c	0.29461706
129	0x3c0bdd23	0.00853661
130	0xc0dc731a	-6.8890505
131	0xbeb984bc	-0.3623408
132	0x3ecddf27	0.40209314
133	0xbea4e7bb	-0.32208046
134	0xbdfef1b0	-0.12448442
135	0xbe1e8a66	-0.15482482
136	0xbefd8795	-0.49517503
137	0x3e5cc490	0.21559358
138	0x3d6f06b5	0.058356006
139	0xbe85c98b	-0.26130328
140	0xbe91c789	-0.28472546
141	0xbe59e0c4	-0.21277148
142	0xbeafb969	-0.34321144
143	0xbede73ac	-0.43447626
144	0xbea725ba	-0.3264597
145	0x3e8b939e	0.2726106
146	0x3ea3613b	0.31910118
147	0xbeb52fd3	-0.3538805
148	0xbeace33e	-0.33767122
149	0x3d88b7b1	0.06675661
150	0xbda708e6	-0.08155994
151	0xbcb3295d	-0.02187031
152	0xbdc6a2b3	-0.09699001
153	0x3e9f615e	0.31128973
154	0x3eafb1c4	0.34315312
155	0xbec27519	-0.37979963
156	0x3eb8743b	0.36026177
157	0xbeeeb9c6	-0.4662611
158	0x3e0ef53e	0.1396074
159	0xbe8a7ccd	-0.2704834
160	0x3ef375ac	0.47550714
161	0x3e98fdd2	0.2988115
162	0x3d840963	0.06447103
163	0xbe9bc16b	-0.30421004
164	0xbdf3610d	-0.11883745
165	0x3ec00189	0.3750117
166	0xbd839808	-0.06425482
167	0xbe36b395	-0.17841943
168	0xbe8ce174	-0.27515757
169	0x3e96ba3a	0.29438955
170	0xbe7e47b8	-0.24832046
171	0x3cc918f4	0.024548031
172	0x3ecff054	0.40613043
173	0xbe8aeab4	-0.2713219
174	0xbe4b9232	-0.19879988
175	0x3db93ecf	0.09045183
176	0xbe90fb8e	-0.2831692
177	0xbe97fb42	-0.29683882
178	0xbec19c2b	-0.3781446
179	0xbeb1a677	-0.34697315
180	0xbb9a34e7	-0.0047060135
181	0xbe992863	-0.29913625
182	0xbe5e3f91	-0.21703936
183	0xbece4831	-0.40289453
184	0xbe4cc7fb	-0.19998161
185	0xbcdba46e	-0.026811805
186	0xbc88e9ff	-0.01671314
187	0xbe4f2baa	-0.202315
188	0xbe8bb9c4	-0.27290165
189	0x3eaff01b	0.34362873
190	0xbe8d1f11	-0.27562764
191	0xbdfdd946	-0.12394957
192	0x3ec5bd33	0.3862091
193	0x3e05bbb4	0.13059884
194	0xbdc61269	-0.0967148
195	0x3e3f7a2a	0.18698946
196	0xbe6a08c9	-0.22854914
197	0xbde6db12	-0.11272253
198	0x3d9aaa30	0.07551992
199	0xbeac251e	-0.33622068
200	0xbe6b24c8	-0.2296325
201	0xbe6dadde	-0.23210856
202	0x3eb8a5c3	0.36063966
203	0xbd7fd132	-0.062455364
204	0x3edda77f	0.43291852
205	0xbe2547b7	-0.16140638
206	0x3ebb66b6	0.366018
207	0xbe83dfca	-0.25756675
208	0xbe18f133	-0.1493576
209	0x3e3c4236	0.18384632
210	0x3e9561b5	0.29176107
211	0xbe3b36b7	-0.18282591
212	0xbea2622f	-0.31715533
213	0xbee54a66	-0.44783324
214	0xbe0ef006	-0.13958749
215	0x3e8ecb2c	0.27889383
216	0xbe843cf0	-0.25827742
217	0x3e770168	0.2412163
218	0xbf058537	-0.52156395
219	0x3ec07719	0.37590864
220	0x3dcbcd07	0.09951215
221	0x3e6d18fb	0.2315406
222	0x3e367726	0.17818889
223	0xbe43f890	-0.19137788
224	0xbe95f4fc	-0.2928847
225	0x3d33fbcc	0.043941304
226	0xbe5cf17c	-0.21576494
227	0xbe624f92	-0.22100666
228	0xbd60fb81	-0.054927353
229	0x3eb7427f	0.3579292
230	0xbe104f6d	-0.14092799
231	0xbd6fef49	-0.05857781
232	0x3cd53107	0.026024355
233	0xbdaf55e8	-0.08561307
234	0xbe759056	-0.23980841
235	0xbebe8265	-0.37208858
236	0xbd711d6b	-0.058865946
237	0x3d66c5df	0.05634105
238	0xbed8ec41	-0.42367747
239	0xbecdb11b	-0.40174183
240	0xbe933593	-0.2875181
241	0xbe8ea9ba	-0.27863866
242	0xc0f64f57	-7.697185
243	0x3e674741	0.22585775
244	0x3e7d3215	0.24726136
245	0xbde58e60	-0.112087965
246	0x3eb99f12	0.36254174
247	0xbeae706f	-0.34070155
248	0xbf389bf9	-0.72112995
249	0xbde41808	-0.11137396
250	0x3ca16268	0.019700244
251	0x3ce882f4	0.028382756
252	0xbf09ed73	-0.53877944
253	0xbe88c5b7	-0.26713344
254	0xbe8ac01d	-0.27099696
255	0xbdd5e879	-0.10444731

conv3.bias f4 [2]
0	0xbd461315	-0.04835804
1	0xbd34a8aa	-0.044106163

conv3.lin.weight f4 [2, 16]
0	0xbdf06314	-0.11737648
1	0xbeb5bb7e	-0.35494608
2	0x3e655648	0.22396195
3	0xbf133e75	-0.57517177
4	0xbde769a1	-0.11299444
5	0xbe00bfc7	-0.12573157
6	0x3e213f04	0.15746695
7	0x3cdb5c46	0.026777398
8	0x3ed5f75d	0.41790286
9	0xbe97025c	-0.29493988
10	0x3ea3dee4	0.3200599
11	0xbde4a2f0	-0.1116389
12	0x3ed0b1b5	0.4076058
13	0xbec69909	-0.38788632
14	0xbdbe369f	-0.09287762
15	0xbeb972cc	-0.36220396
16	0xbee07159	-0.43836477
17	0x3e76d20a	0.24103561
18	0x3e82ae80	0.25523758
19	0x3ea3787e	0.31927866
20	0x3ee28167	0.4423935
21	0xbf04f1f9	-0.5193172
22	0xbe917fac	-0.28417718
23	0xbe277f0b	-0.16357057
24	0xbf0dca35	-0.5538667
25	0x3e6f78d0	0.2338593
26	0x3e9b0bd0	0.3028245
27	0xbe31d4a5	-0.17366274
28	0xbeb8240a	-0.35964996
29	0x3eb2c44d	0.3491539
30	0x3eb1bd94	0.3471495
31	0xbea7d6e3	-0.32781133
